mindslab_ai_test/coin_coding_test/checkpoint/state_dict=78999.ckpt (torch_old, 105642 bytes, 28 tensors)

mid.0.linear.weight f4 [64, 64]
0.11771359 -0.10960238 -0.03449794 -0.12826265 0.15824415 0.21639624 -0.08305923 0.008541665
-0.27478543 -0.04338205 0.23993573 -0.03766589 0.14892663 0.21443327 -0.09201635 -0.14873098
0.1513263 -0.052920144 0.18127242 -0.3031559 0.29140428 -0.094203964 0.023892473 -0.23294774
0.12607905 -0.24018233 -0.056814387 0.15762578 -0.12969473 -0.2618196 0.13806215 0.16826648
0.115642324 0.21928632 -0.1048494 0.064284764 -0.12715775 -0.013122137 0.013995471 0.110810205
0.1136826 -0.09781631 -0.053794585 -0.26611465 0.27970517 -0.09500032 -0.23421308 -0.28795558
-0.0012813098 -0.05978524 0.20838979 -0.13264251 -0.067027465 -0.12507965 -0.21143658 0.08956164
0.014480826 -0.27813095 0.28880143 -0.018091992 0.21569505 0.33592147 0.0123716565 0.052760784
0.15844284 0.051170044 -0.22087298 -0.119080186 0.1701832 -0.2981548 0.30941367 0.09011174
0.31406304 -0.18112236 -0.30130047 0.28730145 0.018116644 0.18531537 0.24211879 -0.25217038
-0.21719141 -0.35376778 0.25605989 -0.28206912 -0.31326237 -0.24319111 0.020921119 -0.17306516
0.04381737 -0.10043767 0.15059537 0.11417431 0.19286592 -0.2400495 0.061199997 0.04837312
0.21783543 0.019723615 0.14372556 0.15812054 0.08713168 0.04163366 0.20141995 -0.28688625
-0.23453319 -0.119993255 0.1807526 -0.24024516 0.10075348 -0.019964416 -0.38131887 0.016259098
0.024769964 0.14585057 -0.2611818 0.054500323 0.13283232 0.020031163 0.009937755 0.2613994
0.17216854 0.12706012 -0.08440708 0.16303052 0.27687666 0.038601916 0.21109205 0.042611424
0.21384697 0.010354089 -0.29885465 0.20334825 0.27696744 0.19378233 -0.06899651 -0.24005024
0.039849818 0.11529409 0.13873684 -0.13928904 -0.041906025 0.15441431 0.07221679 0.16906
0.112988785 -0.25587678 0.14506394 -0.009480621 -0.29885852 -0.23220982 -0.22946538 0.16164884
0.21120588 -0.3622127 0.28996485 0.02773076 0.11810236 0.26763654 0.30689192 0.31544876
-0.24383143 -0.1456815 -0.19593535 -0.23227566 0.15294822 -0.2584813 0.06488936 -0.17138141
0.13709295 0.06288101 0.085088104 0.22487848 -0.3898088 -0.14061365 -0.17293535 -0.06495154
-0.13667186 0.18987064 0.014609612 -0.17908661 0.2921581 -0.29027247 -0.0090770405 -0.017880794
0.358288 -0.21863754 0.20569107 0.046640564 0.067390196 0.04743464 -0.13033904 0.015497862
0.26781964 0.1389927 0.2667987 -0.137604 -0.29370832 -0.1592612 0.19940566 0.16608098
-0.0014148639 -0.1953763 0.0722939 -0.05001539 -0.22573821 0.25847068 -0.05641785 0.280086
-0.26729608 0.24574909 -0.09319021 0.11940368 0.036823507 -0.06010228 0.0632716 -0.031671364
-0.23219413 0.22040036 0.034712795 0.0017007857 -0.22737758 -0.13860148 -0.24761513 -0.04528439
-0.12184091 0.24336293 0.23365682 -0.36256027 0.10703629 -0.16624564 0.14764383 -0.052200418
0.12966037 -0.11720299 -0.3387614 -0.038815223 0.22526349 0.2818121 -0.29976705 0.046390627
-0.16004819 -0.28207326 -0.166802 -0.1366842 -0.05569424 0.091430135 -0.22327444 -0.01314317
-0.0375245 -0.25415176 0.28205636 -0.22086765 -0.18223022 0.0018524586 0.18948744 0.3022065
00000000: d313 f13d 3677 e0bd b64d 0dbd 4957 03be
00000010: c10a 223e fa96 5d3e f51a aabd 57f2 0b3c
00000020: adb0 8cbe 60b1 31bd b6b1 753e 8c47 1abd
00000030: 3980 183e 6594 5b3e 1173 bcbd ef4c 18be
00000040: 48f5 1a3e cbc2 58bd 7a9f 393e 4037 9bbe
00000050: f132 953e 02ee c0bd 26ba c33c da89 6ebe
00000060: de1a 013e 5bf2 75be 34b6 68bd a768 213e
00000070: b2ce 04be 380d 86be 2a60 0d3e 0c4e 2c3e
00000080: e2d5 ec3d 988c 603e 48bb d6bd bba7 833d
00000090: a435 02be 3bfe 56bc 434d 653c 76f0 e23d
000000a0: 6cd2 e83d eb53 c8bd b657 5cbd 2e40 88be
000000b0: 8435 8f3e 878f c2bd 8ed5 6fbe ea6e 93be
000000c0: 9ff1 a7ba 5ee1 74bd 2264 553e 70d3 07be
000000d0: b245 89bd e114 00be d582 58be 186c b73d
000000e0: fd40 6d3c 2e67 8ebe c8dd 933e a835 94bc
000000f0: 2adf 5c3e e6fd ab3e 7db2 4a3c b11b 583d
00000100: d73e 223e ae97 513d 872c 62be 50e0 f3bd
00000110: 8144 2e3e bfa7 98be 786b 9e3e 818c b83d
00000120: dfcc a03e 2478 39be 0e44 9abe 2d19 933e
00000130: 5b69 943c 50c3 3d3e fded 773e 7a1c 81be
00000140: 6d67 5ebe 0d21 b5be 481a 833e 5d6b 90be
00000150: ed63 a0be 1707 79be c462 ab3c fe37 31be
00000160: d879 333d 44b2 cdbd ac35 1a3e 38d4 e93d
00000170: a57e 453e 89cf 75be d9ac 7a3d e522 463d
00000180: 4010 5f3e 6b93 a13c cb2c 133e 5aea 213e
00000190: 1872 b23d 0f88 2a3d 0841 4e3e c1e2 92be
000001a0: 7829 70be 06bf f5bd 3617 393e d402 76be
000001b0: d757 ce3d 6a8c a3bc 3a3c c3be cd31 853c
000001c0: 61ea ca3c da59 153e 9fb9 85be bb3b 5f3d
000001d0: 3205 083e 6518 a43c f7d1 223c 24d6 853e
000001e0: f34c 303e 0c1c 023e 9fdd acbd 79f1 263e
000001f0: c7c2 8d3e 0b1d 1e3d 8428 583e 5189 2e3d
00000200: b3fa 5a3e 32a4 293c 7a03 99be 863a 503e
00000210: adce 8d3e e06e 463e 0b4e 8dbd bbcf 75be
00000220: 9039 233d 4f1f ec3d 0811 0e3e c9a1 0ebe
00000230: a7a5 2bbd c91e 1e3e 65e6 933d 111e 2d3e
00000240: aa66 e73d 4802 83be a48b 143e 9b54 1bbc
00000250: fc03 99be 69c8 6dbe f9f8 6abe 4687 253e
00000260: 5b46 583e f173 b9be 4676 943e 9e2b e33c
00000270: a6df f13d a807 893e f020 9d3e 8082 a13e
00000280: f2ae 79be 882d 15be 47a3 48be acd9 6dbe
00000290: 759e 1c3e a957 84be b6e4 843d 9c7e 2fbe
000002a0: 1862 0c3e c2c7 803d ac42 ae3d 8b46 663e
000002b0: 0595 c7be 06fd 0fbe f715 31be 5005 85bd
000002c0: b5f3 0bbe 736d 423e 275d 6f3c 7b62 37be
000002d0: bf95 953e 989e 94be deb7 14bc be7a 92bc
000002e0: 8671 b73e 85e2 5fbe aea0 523e 2d0a 3f3d
000002f0: df03 8a3d d34a 423d 9977 05be bfea 7d3c
00000300: a81f 893e 1a54 0e3e d799 883e 10e8 0cbe
00000310: f060 96be 5e15 23be ff30 4c3e 2211 2a3e
00000320: f472 b9ba ba10 48be d30e 943d f0dc 4cbd
00000330: eb27 67be 4556 843e 6716 67bd 6f67 8f3e
00000340: 08db 88be a6a5 7b3e 82da bebd eb89 f43d
00000350: 3fd4 163d cf2d 76bd 8a94 813d d5b9 01bd
00000360: 4cc4 6dbe a2b0 613e 012f 0e3d e6ec de3a
00000370: abd5 68be 8ced 0dbe d28e 7dbe 207c 39bd
00000380: ba87 f9bd 2234 793e bc43 6f3e 80a1 b9be
00000390: d835 db3d 4c3c 2abe f22f 173e 1bd0 55bd
000003a0: b0c5 043e 1f08 f0bd 2272 adbe b6fc 1ebd
000003b0: 79ab 663e ad49 903e 117b 99be 1904 3e3d
000003c0: ace3 23be e86b 90be 25ce 2abe f1f6 0bbe
000003d0: a51f 64bd b93f bb3d 0ea2 64be 7356 57bc
000003e0: 4ab3 19bd 2e20 82be b169 903e 212b 62be
000003f0: 8f9a 3abe 32ce f23a ff08 423e cfba 9a3e

mid.0.linear.bias f4 [64]
-0.14487685 -0.21121772 0.0030068527 0.26916024 0.01263957 -0.28310287 -0.04 0.22076958
-0.20189689 0.057341583 -0.09381326 0.056397967 0.0008733854 0.1520856 -0.086410485 0.1288758
-0.2250664 0.11987993 0.2845791 0.1357802 0.016140355 0.19746202 -0.24687335 -0.28481936
0.100349545 0.07842233 -0.21652032 -0.09725591 0.09755036 0.19864555 -0.08253679 0.17471631
-0.2970325 0.042894993 -0.17338634 0.019579554 -0.174237 -0.2742736 -0.26388106 -0.12998044
0.17535202 -0.14571203 0.15238017 -0.18307671 -0.30417907 -0.16784973 0.05169467 -0.2412382
0.29436788 -0.3276378 -0.20208138 -0.083223775 -0.18465313 -0.28418136 -0.14463677 0.18175708
0.035259936 0.2624282 0.24589236 0.26740748 -0.15668055 -0.15206563 -0.053813674 -0.15672782
00000000: 995a 14be 7549 58be 9e0e 453b 5fcf 893e
00000010: 3316 4f3c dcf2 90be 0ad7 23bd 6c11 623e
00000020: 0fbe 4ebe 02df 6a3d 2b21 c0bd 8e01 673d
00000030: e7f3 643a 54bc 1b3e fbf7 b0bd 05f8 033e
00000040: ce77 66be 9c83 f53d 5ab4 913e f709 0b3e
00000050: c738 843c 7c33 4a3e 5ecc 7cbe d8d3 91be
00000060: 1084 cd3d e39b a03d 81b7 5dbe 1b2e c7bd
00000070: 7cc8 c73d bd69 4b3e 0c09 a9bd d5e8 323e
00000080: a514 98be a9b2 2f3d 308c 31be 4d65 a03c
00000090: 2f6b 32be 976d 8cbe 6b1b 87be 9819 05be
000000a0: 7b8f 333e 8935 15be 8c09 1c3e 7678 3bbe
000000b0: 5cbd 9bbe cde0 2bbe cabd 533d 2607 77be
000000c0: 63b7 963e 24c0 a7be 6cee 4ebe 3a71 aabd
000000d0: b615 3dbe 3880 91be a91b 14be 871e 3a3e
000000e0: b96c 103d fd5c 863e 35cb 7b3e a2e9 883e
000000f0: de70 20be 18b7 1bbe ba6b 5cbd 427d 20be

mid.1.linear.weight f4 [64, 64]
0.3579271 0.051719107 -0.06848169 0.25875548 0.08641748 0.22812673 -0.17520203 -0.093830824
0.2658458 0.17684323 0.22560948 -0.102747455 0.044604346 0.37954858 0.19740249 0.22599417
0.027203657 -0.28045848 0.40620297 0.09612095 0.08268238 -0.09049349 -0.15851709 -0.4243237
-0.06569372 -0.20076343 -0.054458726 0.23665564 0.2710742 -0.24608018 -0.14824237 0.07416928
0.14859678 0.1380761 0.10199792 0.029776363 -0.16570061 -0.04989539 0.12789337 -0.20030084
-0.30467972 0.24021941 0.02353932 -0.27200148 0.25151598 -0.14638539 -0.10751317 -0.13157542
0.008504197 -0.032981716 0.085184015 -0.26034293 0.018735528 -0.26013944 0.067987286 -0.27376434
0.12539558 -0.21414255 -0.018010663 -0.029504107 -0.26417643 0.31369117 0.11187732 -0.2080225
0.11857904 -0.053773478 0.45011944 0.057980746 -0.22480145 0.126278 -0.07960146 0.059857056
-0.32021528 -0.18504307 0.33862618 -0.10346282 -0.20989355 -0.05086552 -0.25130472 -0.20025621
0.07485199 0.17703353 -0.10595842 0.15652432 -0.09433615 0.28282684 -0.25192976 -0.036268912
-0.038732044 0.008847383 0.28340778 -0.33700705 -0.15712848 -0.10831608 0.096227214 -0.28803107
0.12465175 -0.017764052 0.27811953 -0.084878646 -0.37513185 -0.118022256 0.06739808 0.045020632
0.22508718 0.060972538 -0.13844295 -0.119546145 0.117804594 0.30093244 0.26962888 -0.19360007
0.039445598 -0.17170243 -0.20069294 0.057267074 -0.17570877 0.37488064 0.19638869 0.16222556
-0.20712076 -0.0107273115 0.36755982 0.35064054 0.25032005 -0.28097755 -0.21769969 0.19973934
0.34845605 0.028250955 -0.4017139 0.08471483 0.1313426 0.14368246 -0.044074986 -0.23722523
-0.032406125 0.36771724 -0.12031571 0.2301969 -0.28326452 -0.056988023 -0.21629827 -0.16232678
0.17697822 -0.40653303 -0.2549741 0.29142794 -0.13130336 -0.19470581 -0.34250546 -0.24297789
-0.23895034 -0.26135787 -0.25012976 -0.21552646 0.23698881 -0.044029843 -0.08287085 -0.4472791
-0.1201019 -0.315217 0.21197468 -0.10787562 -0.04983873 -0.062183525 0.020024212 -0.46179414
0.23578432 0.15911095 0.34015384 0.116801865 0.13447538 0.010470204 -0.33306864 0.18444967
-0.20589231 0.16125523 -0.18460754 -0.23298024 0.14641903 -0.18370633 -0.1636224 0.0657183
0.24302022 -0.03370607 0.24322268 0.29288787 0.3561034 -0.028348222 -0.14942697 0.020566614
0.12882172 0.12783739 -0.13490018 0.1384507 0.3651324 0.22114208 -0.006287197 -0.25497833
0.14226313 -0.047901634 0.21973422 0.03820708 -0.15040483 -0.00991892 0.039865583 0.020010328
-0.21113987 -0.27925482 0.27695498 -0.17205742 0.07673549 -0.053827874 -0.04284384 0.15958494
0.17601982 -0.13985206 -0.17278628 0.2609504 -0.05941395 -0.23438255 0.2566622 0.3459763
-0.1576282 -0.34124216 0.22577655 -0.31332597 -0.20483647 -0.05516233 -0.07984829 -0.0008531607
0.04108565 0.11785363 0.25101164 -0.29746255 0.27040103 0.1578313 0.014935283 -0.084220275
0.10661147 0.08547136 0.12193788 0.2166748 0.15351559 0.005000238 0.15776034 0.062440615
-0.27261233 0.14086735 0.16783772 0.13600622 0.1221561 -0.35204533 -0.2961592 -0.22482091
00000000: 3942 b73e 6ad7 533d 2140 8cbd 997b 843e
00000010: a6fb b03d 0e9a 693e 2968 33be 602a c0bd
00000020: f11c 883e 6416 353e 2c06 673e 426d d2bd
00000030: 0cb3 363d 3154 c23e e123 4a3e 046b 673e
00000040: 34da de3c 4198 8fbe d6f9 cf3e 10db c43d
00000050: 6155 a93d a754 b9bd 4e52 22be f540 d9be
00000060: 6e8a 86bd ee94 4dbe 1d10 5fbd db55 723e
00000070: 3dca 8a3e 71fc 7bbe d9cc 17be 10e6 973d
00000080: c129 183e d263 0d3e 49e4 d03d 8fed f33c
00000090: 6cad 29be 1c5f 4cbd 7bf6 023e aa1b 4dbe
000000a0: fbfe 9bbe 14fc 753e 88d5 c03c c743 8bbe
000000b0: b4c6 803e 0de6 15be dd2f dcbd b5bb 06be
000000c0: 3055 0b3c d617 07bd f574 ae3d ab4b 85be
000000d0: 407b 993c ff30 85be eb3c 8b3d d72a 8cbe
000000e0: b367 003e 2f48 5bbe 198b 93bc 99b2 f1bc
000000f0: 2242 87be 219c a03e f01f e53d da03 55be
00000100: 91d9 f23d 9441 5cbd 0e76 e63e 387d 6d3d
00000110: 5a32 66be 054f 013e 1706 a3bd ac2c 753d
00000120: 42f3 a3be ee7b 3dbe 6960 ad3e 51e4 d3bd
00000130: 56ee 56be 5d58 50bd 03ab 80be f70f 4dbe
00000140: 004c 993d 4748 353e ba00 d9bd e947 203e
00000150: 5033 c1bd aece 903e f0fc 80be b68e 14bd
00000160: 7ea5 1ebd 9df4 103c d31a 913e 308c acbe
00000170: 4ae6 20be d2d4 ddbd c612 c53d cf78 93be
00000180: 6b49 ff3d eb85 91bc af65 8e3e dbd4 adbd
00000190: 4811 c0be a7b5 f1bd 0108 8a3d 8e67 383d
000001a0: 417d 663e 57be 793d fdc3 0dbe 9cd4 f4bd
000001b0: 8943 f13d d113 9a3e cc0c 8a3e 193f 46be
000001c0: b591 213d c3d2 2fbe 7382 4dbe e190 6a3d
000001d0: 00ed 33be 5bf0 bf3e 1e1a 493e 751e 263e
000001e0: 7717 54be 9bc1 2fbc cd30 bc3e 2887 b33e
000001f0: f329 803e 4adc 8fbe abec 5ebe 7888 4c3e
00000200: d568 b23e 8c6e e73c 72ad cdbe f87e ad3d
00000210: ad7e 063e 7f21 133e f987 34bd 2ceb 72be
00000220: 49bc 04bd 6f45 bc3e 1568 f6bd bcb8 6b3e
00000230: 0c08 91be 466c 69bd 4b7d 5dbe fe38 26be
00000240: c739 353e 1925 d0be f78b 82be 0b36 953e
00000250: 6374 06be f660 47be e05c afbe 32cf 78be
00000260: 66af 74be b3d0 85be 0211 80be f8b2 5cbe
00000270: 32ad 723e a358 34bd 31b8 a9bd c401 e5be
00000280: fcf7 f5bd 1f64 a1be e40f 593e e5ed dcbd
00000290: b223 4cbd 27b4 7ebd d109 a43c 4870 ecbe
000002a0: 7271 713e fbed 223e a528 ae3e d135 ef3d
000002b0: eab3 093e 388b 2b3c f987 aabe 60e0 3c3e
000002c0: 6fd5 52be 1720 253e c209 3dbe 5f92 6ebe
000002d0: dfee 153e 831d 3cbe a18c 27be 5197 863d
000002e0: 4bda 783e 600f 0abd 5e0f 793e 66f5 953e
000002f0: 2f53 b63e 883a e8bc 6203 19be 517b a83c
00000300: d7e9 033e cee7 023e 4623 0abe 05c6 0d3e
00000310: a2f2 ba3e 1273 623e d504 cebb 858c 82be
00000320: 6dad 113e 8134 44bd 0202 613e 077f 1c3d
00000330: b903 1abe f782 22bc 184a 233d b3ec a33c
00000340: 0d35 58be 7dfa 8ebe 0bcd 8d3e d22f 30be
00000350: 7f27 9d3d 9e7a 5cbd 067d 2fbd 3c6a 233e
00000360: 8a3e 343e 6135 0fbe e3ee 30be 4a9b 853e
00000370: 0b5c 73bd fb01 70be 3a69 833e ce23 b13e
00000380: 4969 21be 4bb7 aebe f831 673e 436c a0be
00000390: a7c0 51be e5f1 61bd 8087 a3bd a5a6 5fba
000003a0: 6d49 283d 3e5d f13d 9984 803e 034d 98be
000003b0: 0172 8a3e 879e 213e 1eb3 743c ae7b acbd
000003c0: 1d57 da3d 9c0b af3d 91ba f93d 00e0 5d3e
000003d0: 3133 1d3e 09d9 a33b ed8b 213e bbc1 7f3d
000003e0: d893 8bbe 883f 103e a7dd 2b3e 3745 0b3e
000003f0: fa2c fa3d 493f b4be 2ea2 97be 7437 66be

mid.1.linear.bias f4 [64]
-0.042970866 0.045058724 0.11727892 -0.17538235 0.28551945 0.1790877 0.32247162 0.11586451
-0.25277683 0.27263907 -0.24244042 0.13295747 -0.12303467 -0.16434628 0.31111908 0.043452524
-0.2981655 -0.18869214 0.25015357 -0.25014862 -0.2176961 -0.10988058 -0.08132336 0.28844413
0.049213853 0.09284622 0.22377294 0.10189405 -0.09143705 -0.013763734 -0.13471733 -0.3113236
0.18856591 0.11245491 0.24280627 -0.21001273 -0.24060032 0.07773398 0.19745412 -0.023926822
0.23471844 -0.06389725 -0.12177341 0.06648659 0.029898219 0.2505026 0.13024607 -0.2542634
0.040526826 0.25945935 -0.007873566 -0.23589501 0.0059134928 0.2696732 0.2070396 0.0318348
0.19654486 -0.08065671 -0.1516758 0.09737123 0.21373278 0.13211466 0.09015092 -0.032512214
00000000: 3802 30bd 7f8f 383d ee2f f03d 6e97 33be
00000010: 9b2f 923e c462 373e 001b a53e 5f4a ed3d
00000020: f76b 81be 5997 8b3e 4d42 78be 0126 083e
00000030: 9af9 fbbd 644a 28be 004b 9f3e 46fb 313d
00000040: 26a9 98be 8338 41be 2114 803e 7b13 80be
00000050: baeb 5ebe 1209 e1bd dd8c a6bd f3ae 933e
00000060: 7794 493d 2926 be3d bc24 653e d4ad d03d
00000070: 5943 bbbd 4981 61bc 57f3 09be cf65 9fbe
00000080: 6c17 413e c34e e63d 35a2 783e 940d 57be
00000090: ee5f 76be fe32 9f3d 6a31 4a3e 2f02 c4bc
000000a0: 085a 703e 90dc 82bd 5664 f9bd 1f2a 883d
000000b0: 1ced f43c e041 803e 3a5f 053e d02e 82be
000000c0: 75ff 253d dbd7 843e 2100 01bc 768e 71be
000000d0: f9c5 c13b 9b12 8a3e 3002 543e 3565 023d
000000e0: 0e43 493e 582f a5bd e750 1bbe 916a c73d
000000f0: c4dc 5a3e 1149 073e 0ca1 b83d 872b 05bd

mid.2.linear.weight f4 [64, 64]
0.24695033 -0.05651489 -0.27550167 0.24386032 -0.008496051 -0.066749945 0.22924854 -0.20059535
-0.025920857 -0.21988013 0.32692835 -0.35874313 0.04446827 0.17622471 -0.2854792 0.2632261
0.19386233 0.35433674 0.071956694 -0.12122044 0.42771783 -0.12339864 -0.44894212 -0.06675926
0.07653729 0.21307285 0.27479666 0.39521804 0.29223686 0.35443917 -0.025196742 -0.03398976
-0.21294503 0.27217767 0.0951572 -0.13974315 -0.31446546 -0.1708965 0.08427728 0.39549014
0.3504445 0.22559975 0.07076504 0.04854942 0.014803979 -0.31403854 -0.3730522 0.38615274
0.19736111 0.09764716 0.10708383 0.22179238 -0.13954504 -0.0047163703 0.32924765 -0.28078222
-0.13412198 0.00941216 -0.15638195 -0.03466845 0.30787385 -0.1285098 -0.26657826 0.10583876
-0.07397307 0.30250657 0.32875985 0.16490863 -0.17249283 -0.07556721 -0.4426753 0.32278636
0.19669108 0.06642423 0.47526923 -0.19224364 -0.108844824 -0.31550825 0.096681274 0.00038644066
-0.05072659 -0.17234215 -0.070878595 -0.18363947 0.29256156 -0.06806044 -0.16246517 -0.22646274
0.09637996 0.13631754 -0.06964095 -0.17156123 0.18964347 0.10592679 -0.17731148 -0.037129812
-0.26365578 0.06925289 0.103047736 -0.32767728 0.3861544 -0.33496714 0.06402179 0.39206588
0.21942905 -0.23681 0.16208898 -0.1460018 0.25792772 -0.43039146 0.04906385 0.17898507
-0.19263054 0.26885772 -0.28225857 -0.028871687 0.16311505 -0.13999443 -0.049510796 -0.31626475
-0.013135637 0.24557564 -0.033791617 -0.15931772 -0.23345889 -0.1743642 -0.27587306 -0.017639253
-0.16984242 0.25552198 0.31458312 -0.295927 -0.06553674 0.2614293 -0.023156352 -0.072839156
0.013873864 0.31692734 -0.2670052 0.2473557 6.218264e-05 -0.031862054 0.34893805 0.13150118
-0.21743974 0.2506428 -0.3715799 -0.022676613 0.046037596 -0.120322645 0.13515675 0.19780676
-0.06415306 -0.1153067 0.20689765 0.022007035 0.23985209 -0.13452335 -0.16656716 0.090672486
0.026631346 0.3004258 -0.2730072 -0.19552273 0.1303519 -0.2945284 0.30811405 -0.02233818
-0.20614868 0.30448246 -0.23831132 -0.013423737 0.15581165 -0.16031311 -0.30446628 0.15840787
-0.15912919 0.20197788 0.16789846 -0.37548065 -0.11186792 -0.104033574 -0.18384507 0.18841788
0.09592146 -0.0016433623 -0.19215918 0.10737184 -0.26331112 -0.017069412 0.3471024 0.18996955
-0.1903253 0.34358624 0.18198699 0.08477614 0.22241491 0.0768262 0.19010091 -0.30712858
-0.0053670336 -0.37500334 -0.15636985 -0.12390678 0.126775 -0.1526437 0.07272901 -0.20362996
0.07261832 -0.23187426 -0.047210187 0.010509586 -0.015430358 0.14275923 -0.22898002 0.0040932116
-0.0020787618 0.07547873 -0.20233016 0.1540992 -0.137419 0.0077567385 0.22518985 -0.028616354
-0.24835905 -0.1840156 0.23598176 0.07237242 -0.23349005 -0.19364321 -0.16097926 0.20385861
0.25241393 -0.09342869 -0.18134864 -0.051502965 -0.07212692 -0.21616615 -0.24996293 -0.011472636
-0.026281688 -0.07168981 0.21109428 0.30772877 -0.38923916 0.21753131 0.08735124 0.117487356
-0.10292191 -0.2539851 -0.3459656 -0.01976567 0.05928515 -0.22768834 -0.15077537 -0.11068727
00000000: 8ce0 7c3e 287c 67bd 8e0e 8dbe 85b6 793e
00000010: 0533 0bbc 32b4 88bd 21c0 6a3e de68 4dbe
00000020: fa57 d4bc 4228 61be 2763 a73e 2ead b7be
00000030: 5c24 363d 4074 343e 542a 92be 92c5 863e
00000040: d983 463e a06b b53e 085e 933d 6c42 f8bd
00000050: d5fd da3e 6db8 fcbd bedb e5be 14b9 88bd
00000060: 95bf 9c3d c52f 5a3e 26b2 8c3e 055a ca3e
00000070: 12a0 953e 0d79 b53e 6669 cebc d938 0bbd
00000080: 430e 5abe df5a 8b3e c7e1 c23d d418 0fbe
00000090: 9e01 a1be 7eff 2ebe 9199 ac3d af7d ca3e
000000a0: 766d b33e 9f03 673e 43ed 903d c2db 463d
000000b0: 638c 723c a9c9 a0be b300 bfbe d0b5 c53e
000000c0: 0819 4a3e 3cfb c73d c44e db3d 8b1d 633e
000000d0: e5e4 0ebe c88b 9abb 2693 a83e b0c2 8fbe
000000e0: 4657 09be 7635 1a3c 9722 20be 8100 0ebd
000000f0: a4a1 9d3e 1398 03be f27c 88be fec1 d83d
00000100: 317f 97bd 24e2 9a3e 3653 a83e cfdd 283e
00000110: f6a1 30be fbc2 9abd 56a6 e2be 4144 a53e
00000120: 6369 493e 6d09 883d 7d56 f33e 84db 44be
00000130: 09ea debd 4c8a a1be d500 c63d 309b ca39
00000140: afc6 4fbd 767a 30be cc28 91bd fc0b 3cbe
00000150: a1ca 953e 4663 8bbd 455d 26be d9e5 67be
00000160: db62 c53d d396 0b3e ea9f 8ebd bfad 2fbe
00000170: e631 423e 25f0 d83d 2491 35be 6e15 18bd
00000180: e4fd 86be 76d4 8d3d b10a d33d 51c5 a7be
00000190: 08b6 c53e d080 abbe db1d 833d dcbc c83e
000001a0: 02b2 603e 527e 72be a7fa 253e 7f81 15be
000001b0: 1a0f 843e 455c dcbe 2df7 483d dd47 373e
000001c0: f140 45be b8a7 893e 3284 90be 5184 ecbc
000001d0: a207 273e b35a 0fbe d5cb 4abd 74ed a1be
000001e0: db36 57bc 2e78 7b3e 1469 0abd 2f24 23be
000001f0: d90f 6fbe 878c 32be 3c3f 8dbe 3280 90bc
00000200: 2ceb 2dbe c7d3 823e 0a11 a13e be83 97be
00000210: 2038 86bd 10da 853e 64b2 bdbc b22c 95bd
00000220: 344f 633c 4d44 a23e e8b4 88be d04a 7d3e
00000230: 0d68 8238 c981 02bd 02a8 b23e 3fa8 063e
00000240: 86a8 5ebe 4154 803e b83f bebe 4ec4 b9bc
00000250: eb91 3c3d b86b f6bd 8866 0a3e db8d 4a3e
00000260: ae62 83bd eb25 ecbd fadc 533e 1948 b43c
00000270: c99b 753e 7dc0 09be 9590 2abe 7fb2 b93d
00000280: fb29 da3c 69d1 993e 9ac7 8bbe 1c37 48be
00000290: f87a 053e 6dcc 96be 20c1 9d3e 8ffe b6bc
000002a0: a418 53be 20e5 9b3e e207 74be 3cef 5bbc
000002b0: 178d 1f3e 1f29 24be 01e3 9bbe ac35 223e
000002c0: c3f2 22be 4ad3 4e3e 93ed 2b3e 003f c0be
000002d0: 021b e5bd 8e0f d5bd e241 3cbe 9ef0 403e
000002e0: 7872 c43d 1766 d7ba 60c5 44be c4e5 db3d
000002f0: b7d0 86be 27d5 8bbc 68b7 b13e 6187 423e
00000300: a3e4 42be 89ea af3e cc5a 3a3e 1d9f ad3d
00000310: bcc0 633e 0e57 9d3d d0a9 423e f53f 9dbe
00000320: f1dd afbb 7000 c0be 6b1f 20be d6c2 fdbd
00000330: 4ed1 013e a14e 1cbe f2f2 943d 5f84 50be
00000340: eab8 943d 7270 6dbe 785f 41bd 6630 2c3c
00000350: 9dcf 7cbc 7a2f 123e bd79 6abe 5920 863b
00000360: d63b 08bb 9894 9a3d a32f 4fbe 2ecc 1d3e
00000370: 91b7 0cbe 3d2c fe3b 2b98 663e d86c eabc
00000380: d651 7ebe 966e 3cbe 34a5 713e fe37 943d
00000390: 0418 6fbe 684a 46be bfd7 24be 50c0 503e
000003a0: 663c 813e 8b57 bfbd 75b3 39be c6f4 52bd
000003b0: 47b7 93bd a95a 5dbe 48f6 7fbe b9f7 3bbc
000003c0: b24c d7bc 1bd2 92bd 1929 583e a08e 9d3e
000003d0: 5b4a c7be 87c0 5e3e 35e5 b23d 369d f03d
000003e0: b9c8 d2bd 560a 82be 6722 b1be 9deb a1bc
000003f0: fcd4 723d 2227 69be dc64 1abe 02b0 e2bd

mid.2.linear.bias f4 [64]
-0.3132434 -0.23331572 0.022341156 0.09340641 -0.14162746 -0.19182995 -0.25684988 0.032281514
-0.010417762 -0.17814042 0.17596453 -0.26721522 -0.19606349 -0.1758731 -0.1183142 0.03148012
0.190415 -0.16917942 0.15739979 0.096546285 -0.035181917 -0.22598404 -0.0722223 0.2720654
-0.011161063 -0.16924557 0.025150318 0.13825044 -0.06984764 -0.22272432 -0.017202381 0.2765217
-0.22702709 0.09727388 -0.058267206 -0.25444806 -0.2141645 0.10925604 0.17386307 0.16699396
0.05553202 0.25268415 0.027886538 0.03250371 0.08014039 0.29967225 -0.21507925 -0.2504749
0.09942855 -0.09216488 0.30073386 -0.14551194 -0.051392198 0.13265078 -0.2640498 -0.09118152
-0.27415043 0.27658918 -0.16172813 -0.097302355 -0.27984926 0.23475632 0.17511125 0.13776153
00000000: 7061 a0be 51ea 6ebe cd04 b73c dc4b bf3d
00000010: ca06 11be 126f 44be d481 83be 9f39 043d
00000020: 43af 2abc 716a 36be 0c30 343e 6fd0 88be
00000030: dec4 48be 1418 34be b74e f2bd 4cf1 003d
00000040: 26fc 423e 5f3d 2dbe 692d 213e 0fba c53d
00000050: ea1a 10bd 5c68 67be 49e9 93bd 284c 8b3e
00000060: e4dc 36bc b64e 2dbe 0a08 ce3c 8691 0d3e
00000070: 480c 8fbd d811 64be 02ec 8cbc 4194 8d3e
00000080: ca79 68be 8737 c73d 98a9 6ebd 0447 82be
00000090: f04d 5bbe a1c1 df3d 2909 323e 7700 2b3e
000000a0: 8b75 633d d15f 813e 4f72 e43c 9c22 053d
000000b0: a520 a43d a46e 993e bc3d 5cbe 3f3e 80be
000000c0: 32a1 cb3d f1c0 bcbd caf9 993e 1501 15be
000000d0: a080 52bd 9bd5 073e 8931 87be 60bd babd
000000e0: 725d 8cbe 199d 8d3e 0f9c 25be 7546 c7bd
000000f0: 6748 8fbe f663 703e 5d50 333e 5c11 0d3e

mid.3.linear.weight f4 [64, 64]
-0.30474186 0.4911147 0.2615939 0.2827139 -0.13927631 0.2886844 0.15213118 0.22474703
-0.008804967 0.108543076 0.13945352 -0.33995143 -0.49374428 0.09487306 -0.32856742 -0.078767076
-0.16833784 -0.06318876 0.2905025 -0.127045 -0.2599552 -0.26622757 0.24682452 -0.10609979
0.09892708 0.24511807 -0.30228493 -0.073626086 0.320294 0.22080404 0.09990911 -0.24654369
-0.023841409 0.2640126 -0.23699784 0.028501367 -0.17873368 0.47679043 0.06746993 0.14564957
0.06677624 -0.09191421 -0.46459743 0.29380155 0.25492793 0.3295829 0.13186991 -0.08126244
-0.2746769 -0.03929667 0.25579175 0.22772709 -0.16567698 0.36013693 -0.4231276 -0.020970995
0.07176958 0.24216703 0.013249611 -0.2632818 -0.1458372 -0.35232753 -0.06524218 0.012826144
-0.38615233 -0.23024467 -0.21367733 0.20308815 -0.077029176 0.2617107 0.20831853 -0.0696449
0.36149934 -0.0021208636 0.30303884 0.37522534 0.11520016 -0.29557887 0.337576 0.16122046
-0.34950122 0.29614305 -0.1976584 0.30004323 -0.07162579 0.25914615 -0.049085252 0.102960885
0.09239894 -0.26145336 0.17919049 0.19766407 0.16057195 0.4361793 -0.21210532 0.17816873
0.047784623 0.06586475 0.026364043 -0.10135663 -0.23818186 0.3160659 -0.017465694 -0.21537295
-0.4277014 -0.1716191 0.05815487 0.33577615 -0.02521938 -0.22007509 0.10586526 0.079907894
-0.06043182 -0.055730328 -0.0135864075 0.06984909 0.051383905 -0.06325287 -0.13627836 -0.37475178
0.4281146 0.07400918 -0.3514664 0.28564444 0.13251221 0.032365415 0.28746718 0.29961357
-0.2160268 0.15206662 0.16150747 0.20030825 -0.33609354 -0.20503989 0.11555092 -0.11232059
-0.39680606 0.27372932 -0.11930235 -0.15092519 0.3811897 0.079094075 0.24913883 0.20072101
0.06858102 -0.09861687 0.07195827 -0.25619864 0.27734226 0.20226267 -0.0207237 -0.16067603
-0.4124108 0.18918392 0.3295275 -0.15193 0.045455676 0.0106227705 -0.21382137 -0.2747055
-0.12923808 -0.10888628 -0.33554462 0.08106915 0.25688896 0.086060055 -0.124626935 0.14085548
-0.27824804 0.29427302 -0.2548235 -0.09305006 -0.2835086 0.11214383 -0.37855715 -0.06516662
0.3189942 0.27979243 0.34459886 0.369149 0.21278042 0.085620046 -0.3184641 -0.081623554
-0.17199531 0.086830534 0.03151093 0.10374629 -0.23423764 0.0923328 0.3850429 0.06265494
-0.2716227 0.03704265 -0.3657755 0.17793013 0.20740189 0.28499436 0.32405624 -0.10916906
-0.1962996 0.24296768 0.16792671 0.08002568 0.2797966 0.32180312 -0.029206041 0.07558758
0.044839554 -0.20906864 0.2550433 -0.16873112 0.26085553 -0.2234363 -0.20686503 0.114987366
0.074548826 -0.021831578 0.23120815 0.2581064 0.17374928 0.07330091 0.2466626 0.21895851
0.026456976 0.19029038 -0.25842023 -0.2221088 0.0041484497 -0.30557922 0.13383684 -0.18673679
0.1236182 -0.2385156 -0.23777004 -0.40589148 0.0022108438 -0.42515633 0.09238907 0.2001161
0.08187187 0.09358547 0.11847597 -0.30648047 0.17210668 0.30152297 0.012221116 0.35516134
0.100842096 -0.08554712 -0.024526475 0.06543016 0.21443379 -0.17910007 0.072970994 0.047128003
00000000: 2007 9cbe 6373 fb3e a3ef 853e e0bf 903e
00000010: 739e 0ebe 71ce 933e 47c8 1b3e 1624 663e
00000020: b542 10bc d54b de3d e7cc 0e3e 1d0e aebe
00000030: 0dcc fcbe cf4c c23d fd39 a8be a250 a1bd
00000040: c160 2cbe 1c69 81bd bebc 943e 1618 02be
00000050: d918 85be fb4e 88be 91bf 7c3e d94a d9bd
00000060: 489a ca3d 3b00 7b3e 17c5 9abe 46c9 96bd
00000070: 93fd a33e 741a 623e 269d cc3d f375 7cbe
00000080: 0f4f c3bc a92c 873e 90af 72be b37b e93c
00000090: f605 37be e01d f43e ad2d 8a3d 2925 153e
000000a0: fbc1 883d 843d bcbd b7df edbe 286d 963e
000000b0: ea85 823e 17bf a83e e808 073e ec6c a6bd
000000c0: 73a2 8cbe 8cf5 20bd 23f7 823e 4a31 693e
000000d0: 3aa7 29be de63 b83e 2ea4 d8be 5dcb abbc
000000e0: eefb 923d a2fa 773e e514 593c dfcc 86be
000000f0: 5956 15be 4664 b4be b19d 85bd bf24 523c
00000100: c2b5 c5be 42c5 6bbe 3bce 5abe 57f6 4f3e
00000110: 79c1 9dbd f2fe 853e 7451 553e fca1 8ebd
00000120: 7116 b93e 30fe 0abb e827 9b3e 891d c03e
00000130: 10ee eb3d 1d56 97be c3d6 ac3e fa16 253e
00000140: d3f1 b2be 10a0 973e f766 4abe 449f 993e
00000150: 8bb0 92bd ceae 843e 9e0d 49bd 28dd d23d
00000160: a83b bd3d 37dd 85be b67d 373e 7368 4a3e
00000170: f96c 243e e552 df3e 2332 59be dd71 363e
00000180: cfb9 433d 19e4 863d 68f9 d73c 1194 cfbd
00000190: f2e5 73be 64d3 a13e 3714 8fbc ba8a 5cbe
000001a0: aefb dabe ebbc 2fbe cd33 6e3d daea ab3e
000001b0: e098 cebc 5d5b 61be e3cf d83d c0a6 a33d
000001c0: 5b87 77bd 7c45 64bd 8699 5ebc 0a0d 8f3d
000001d0: ee77 523d b98a 81bd 8e8c 0bbe 77df bfbe
000001e0: d631 db3e 2092 973d 67f3 b3be fd3f 923e
000001f0: 48b1 073e 9991 043d e62e 933e f366 993e
00000200: 2136 5dbe 5ab7 1b3e 3762 253e 9b1d 4d3e
00000210: 7414 acbe faf5 51be f6a5 ec3d 5608 e6bd
00000220: 2a2a cbbe 4026 8c3e ca54 f4bd 228c 1abe
00000230: 4c2b c33e 13fc a13d 401e 7f3e cf89 4d3e
00000240: 3574 8c3d a4f7 c9bd dc5e 933d 782c 83be
00000250: ceff 8d3e f21d 4f3e c0c4 a9bc 4288 24be
00000260: 8227 d3be 6eb9 413e d4b7 a83e 8a93 1bbe
00000270: bb2f 3a3d 210b 2e3c fdf3 5abe 33a6 8cbe
00000280: fd56 04be c5ff debd 81cc abbe 9507 a63d
00000290: f386 833e 4140 b03d 683c ffbd 6b3c 103e
000002a0: 8776 8ebe f4aa 963e 3a78 82be 0891 bebd
000002b0: 0a28 91be aaab e53d 3ed2 c1be 1476 85bd
000002c0: 3553 a33e f440 8f3e 436f b03e 1901 bd3e
000002d0: 1ce3 593e 9059 af3d ba0d a3be 402a a7bd
000002e0: 8a1f 30be 35d4 b13d 9b11 013d ef78 d43d
000002f0: fedb 6fbe fb18 bd3d 5824 c53e 3c51 803d
00000300: 2112 8bbe 09ba 173d ed46 bbbe 5133 363e
00000310: 2961 543e c8ea 913e b3ea a53e 0794 dfbd
00000320: c302 49be 85cc 783e fbf4 2b3e 81e4 a33d
00000330: 8041 8f3e 61c3 a43e 8241 efbc a9cd 9a3d
00000340: aea9 373d 1716 56be 0995 823e dac7 2cbe
00000350: db8e 853e 7ccc 64be 6dd4 53be 7f7e eb3d
00000360: 0ead 983d 23d8 b2bc d4c1 6c3e 8626 843e
00000370: 55eb 313e ca1e 963d 1f95 7c3e a936 603e
00000380: 4dbc d83c 7bdb 423e a84f 84be 7d70 63be
00000390: b8ef 873b e174 9cbe 860c 093e ee37 3fbe
000003a0: 8a2b fd3d 6f3d 74be fd79 73be 02d1 cfbe
000003b0: cee3 103b 17ae d9be 7b36 bd3d 3ceb 4c3e
000003c0: 70ac a73d bda9 bf3d 88a3 f23d 02eb 9cbe
000003d0: bc3c 303e 3861 9a3e 133b 483c b5d7 b53e
000003e0: 4d86 ce3d 5433 afbd bfeb c8bc 3f00 863d
000003f0: 8894 5b3e 0266 37be d171 953d 4b09 413d

mid.3.linear.bias f4 [64]
-0.158351 -0.21247491 0.037238102 -0.18395232 -0.12668043 0.01971536 0.22089835 0.2784223
-0.2734816 0.12942956 -0.34336692 0.20167875 0.21535507 0.2567236 0.3230712 -0.13768917
0.15148947 0.06749201 -0.025499081 -0.09951265 0.19540693 -0.12171752 -0.09268414 -0.09976425
0.12489879 -0.16817366 0.08318649 0.26102725 0.17892875 0.1398186 -0.12975359 -0.1633404
0.12875792 0.32833582 0.27857608 -0.0037981763 -0.16163969 -0.12312674 -0.1334746 0.22539249
0.034123536 -0.05921488 0.009096325 -0.06636709 0.13949147 -0.15634955 0.068553306 0.23724139
-0.39272472 0.16858104 0.2245934 -0.18869445 0.3066365 0.2461125 -0.24318738 0.28548878
0.24469788 0.032506995 -0.17764972 -0.054014344 0.22790109 0.2569754 0.16531163 0.123909004
00000000: c426 22be 0693 59be fb86 183d ff5d 3cbe
00000010: 84b8 01be 1b82 a13c 2d33 623e 5e8d 8e3e
00000020: c805 8cbe 2f89 043e cacd afbe e084 4e3e
00000030: 0a86 5c3e 4771 833e 9769 a53e 64fe 0cbe
00000040: 0e20 1b3e 4039 8a3d 73e3 d0bc 4acd cbbd
00000050: c118 483e 0947 f9bd 2fd1 bdbd 3351 ccbd
00000060: f0ca ff3d b735 2cbe ae5d aa3d 5da5 853e
00000070: 1939 373e 9b2c 0f3e 20de 04be b542 27be
00000080: 1ed9 033e a21b a83e 86a1 8e3e d3ea 78bb
00000090: e084 25be df29 fcbd 91ad 08be 4acd 663e
000000a0: 1fc5 0b3d 4d8b 72bd c108 153c 78eb 87bd
000000b0: dad6 0e3e 191a 20be ad65 8c3d 68ef 723e
000000c0: 3713 c9be 82a0 2c3e d0fb 653e 1e39 41be
000000d0: 76ff 9c3e ea04 7c3e 1d06 79be 962b 923e
000000e0: 1592 7a3e 0e26 053d cfe9 35be 253e 5dbd
000000f0: e75e 693e 4892 833e 7447 293e 01c4 fd3d

mid.4.linear.weight f4 [64, 64]
-0.2644807 0.100913055 0.16208088 -0.22693323 -0.12374379 0.10694152 -0.0012403517 -0.33015627
-0.03057518 -0.1334838 0.18767872 0.47302538 0.019524079 -0.22355615 -0.23374613 -0.08779036
0.078324415 0.03802519 0.18726061 0.34468603 0.022007115 0.07038481 -0.2265223 0.19710799
0.04389805 -0.15181273 0.17792557 0.4189357 0.15943818 -0.2255611 0.121821895 -0.22776975
0.05617293 0.35302243 -0.25829607 -0.19926503 -0.27987328 0.06979341 0.1556889 0.21442962
-0.3607003 0.3523685 0.16884176 0.2770009 -0.014611535 0.24583702 0.073202014 0.314939
0.15513143 0.030125491 0.03327388 -0.062091812 0.20786905 -0.17216733 -0.17228153 -0.2726924
0.21527894 -0.18550344 0.31247577 0.27102032 0.033237025 0.21744774 0.41848058 -0.13334115
-0.023315813 -0.35223535 0.058644593 0.24537544 0.20735766 -0.31957933 0.16850074 0.022882061
-0.36934906 0.09276498 0.3494014 -0.31606677 0.1695214 0.32402495 -0.30797622 -0.1425111
-0.34869972 0.3441614 -0.27260333 0.1290994 -0.42124915 -0.19260786 -0.002698731 0.35252243
0.06667365 -0.2584131 -0.2477832 -0.28921485 -0.15747505 0.20856963 0.27647844 -0.25343233
0.3697624 -0.049511787 0.22712712 0.17872989 -0.2987136 0.16284335 -0.1683689 -0.053100377
0.137641 0.14564118 -0.090970255 -0.013580829 0.38757327 -0.107152425 -0.115270644 0.41792637
0.27402472 -0.06797087 -0.20457189 0.1448188 -0.19342183 0.20056891 -0.21216731 0.24301133
0.0005923709 -0.33958924 0.29962462 0.122932106 0.11550875 0.28023583 0.38103795 0.31839645
0.08571269 -0.30090287 0.37524235 -0.17233552 0.27688003 -0.38468212 -0.17769077 0.13590795
-0.52061737 0.36613652 0.58795005 0.16760512 0.32193518 -0.0044301418 -0.11407936 0.25441974
0.5070058 -0.1143328 -0.045094833 -0.35871765 0.25556374 -0.19539227 -0.014053372 -0.16325602
-0.12354287 -0.08582324 0.0070522493 0.090861924 -0.04499988 0.3304116 -0.20879586 -0.22203071
-0.15633145 -0.06238568 0.090057634 0.20715865 0.11660459 0.024408061 0.09956443 -0.2564146
0.071017385 0.4522563 0.33883092 0.04918928 0.050209146 0.12285057 -0.034045406 0.28314933
0.45999852 -0.117699705 -0.14607386 0.4718175 0.23554386 0.18560341 -0.19214757 -0.012168485
-0.27932256 0.1108489 -0.24865349 0.07968176 -0.6384199 0.22067373 0.15051407 -0.08308269
-0.3056369 0.15363055 -0.36978942 0.029427376 0.12839274 -0.4927599 0.18303485 -0.0023696953
0.23795435 0.05034442 0.34180275 -0.33139887 -0.18604822 -0.27448073 0.04534796 0.40753224
0.30783024 0.040904775 0.31262565 0.37944165 0.10388383 -0.15204419 -0.09508522 -0.3015576
0.25277364 -0.39947683 0.14757954 -0.0021772974 -0.26088026 -0.45726296 -0.30016172 0.045882545
-0.24211043 -0.047653973 -0.33013952 -0.54264987 -0.5421854 -0.04050796 0.071840264 0.17708515
0.12709793 0.12670326 0.05759959 0.14213154 0.21229702 -0.04966663 0.34118533 -0.24936387
0.11225755 -0.22861445 0.23361106 0.2190031 0.30866668 0.030197822 0.18372788 0.13927288
0.045650344 0.31669053 0.06623367 0.11291172 -0.54674584 0.21025844 0.006993559 -0.1178624
00000000: 046a 87be 81ab ce3d 88f8 253e 2f61 68be
00000010: 626d fdbd 2804 db3d 4c93 a2ba 3e0a a9be
00000020: cd78 fabc faaf 08be da2e 403e 6230 f23e
00000030: f6f0 9f3c e7eb 64be 255b 6fbe 6fcb b3bd
00000040: 8d68 a03d 4dc0 1b3d 3fc1 3f3e b07a b03e
00000050: 4448 b43c e925 903d 76f5 67be add6 493e
00000060: 71ce 333d cc74 1bbe 1f32 363e bd7e d63e
00000070: c343 233e 7df9 66be c27d f93d 793c 69be
00000080: 9615 663d 5bbf b43e 623f 84be 220c 4cbe
00000090: 8d4b 8fbe d9ef 8e3d e96c 1f3e 7093 5b3e
000000a0: b6ad b8be a569 b43e dbe4 2c3e 10d3 8d3e
000000b0: 3865 6fbc b3bc 7b3e f0ea 953d af3f a13e
000000c0: c6da 1e3e bcc9 f63c 314a 083d fc53 7ebd
000000d0: a0db 543e a24c 30be 926a 30be 579e 8bbe
000000e0: 1572 5c3e 9df4 3dbe d3fc 9f3e 2dc3 8a3e
000000f0: 8c23 083d 9faa 5e3e 1643 d63e 958a 08be
00000100: ce00 bfbc 3158 b4be 5035 703d b343 7b3e
00000110: 9155 543e e79f a3be 758b 2c3e 2973 bb3c
00000120: 521b bdbe 91fb bd3d bee4 b23e 81d3 a1be
00000130: 0597 2d3e 99e6 a53e 0faf 9dbe 6eee 11be
00000140: c588 b2be ec35 b03e aa92 8bbe a232 043e
00000150: f8ad d7be ff3a 45be 31dd 30bb d27d b43e
00000160: 328c 883d b94e 84be e1ba 7dbe f813 94be
00000170: 2441 21be 4793 553e 958e 8d3e e2c1 81be
00000180: 7f51 bd3e dfcc 4abd 0394 683e f804 373e
00000190: fdf0 98be 68c0 263e e668 2cbe c87f 59bd
000001a0: c3f1 0c3e f622 153e 9d4e babd 2082 5ebc
000001b0: 0170 c63e bb72 dbbd 0413 ecbd 72fa d53e
000001c0: f84c 8c3e 5034 8bbd 4b7b 51be 614b 143e
000001d0: 5f10 46be f061 4d3e 6342 59be f6d7 783e
000001e0: 5749 1b3a a4de adbe 6668 993e d4c3 fb3d
000001f0: da8f ec3d 127b 8f3e 6817 c33e dc04 a33e
00000200: 238a af3d f10f 9abe c41f c03e b978 30be
00000210: 38c3 8d3e 0ef5 c4be 92f4 35be 742b 0b3e
00000220: 2e47 05bf 3f76 bb3e e583 163f ada0 2b3e
00000230: b0d4 a43e b92a 91bb 71a2 e9bd 4e43 823e
00000240: 22cb 013f 5127 eabd 5cb5 38bd d7a9 b7be
00000250: 40d9 823e e914 48be 1d40 66bc 962c 27be
00000260: 0b04 fdbd 18c4 afbd 8e16 e73b d115 ba3d
00000270: cb51 38bd b62b a93e 95ce 55be 055c 63be
00000280: 5a15 20be 2088 7fbd 2370 b83d 6621 543e
00000290: 63ce ee3d 6af3 c73c 70e8 cb3d c648 83be
000002a0: 9071 913d 238e e73e 3f7b ad3e b37a 493d
000002b0: 1ba8 4d3d 1499 fb3d 3273 0bbd f3f8 903e
000002c0: ed84 eb3e 8b0c f1bd 6394 15be 1092 f13e
000002d0: 6932 713e d20e 3e3e 55c2 44be 535e 47bc
000002e0: 5e03 8fbe c004 e33d 059f 7ebe 3130 a33d
000002f0: 7d6f 23bf 4bf8 613e 5c20 1a3e 4227 aabd
00000300: 717c 9cbe 5451 1d3e 0a55 bdbe ae11 f13c
00000310: 6379 033e 074b fcbe 7d6d 3b3e e44c 1bbb
00000320: 4eaa 733e f335 4e3d c500 af3e 1dad a9be
00000330: 6d83 3ebe bd88 8cbe c8be 393d 11a8 d03e
00000340: ed9b 9d3e c48b 273d 7810 a03e 2d46 c23e
00000350: 0cc1 d43d 79b1 1bbe 0abc c2bd c265 9abe
00000360: 8c6b 813e 3a88 ccbe 171f 173e fdb0 0ebb
00000370: 1992 85be 5f1e eabe ccae 99be 56ef 3b3d
00000380: cceb 77be d030 43bd 0c08 a9be 1aeb 0abf
00000390: aacc 0abf adeb 25bd fd20 933d cf55 353e
000003a0: f625 023e 80be 013e 8ced 6b3d ee8a 113e
000003b0: 6464 593e 3c6f 4bbd d8af ae3e 3e59 7fbe
000003c0: 49e7 e53d e819 6abe bd37 6f3e 5942 603e
000003d0: 8f09 9e3e 6c61 f73c 2923 3c3e 8d9d 0e3e
000003e0: dbfb 3a3d 4325 a23e 85a5 873d 433e e73d
000003f0: 89f7 0bbf fd4d 573e 3a2a e53b d861 f1bd

mid.4.linear.bias f4 [64]
-0.24069853 -0.098073855 -0.0761363 -0.17191865 -0.14439866 0.12761487 0.22598353 0.26955464
0.2445453 0.09041317 0.23754473 -0.14136021 0.20532821 -0.02682396 0.005043412 0.17593679
0.08208765 0.20596102 -0.3303096 0.20454416 0.12746999 0.22822237 -0.14246534 0.26858938
0.21959 -0.28616184 -0.05933491 0.19513819 0.08781329 -0.044076975 0.21086934 -0.20765825
-0.2688729 0.3429152 0.10490215 -0.12000784 0.2516763 -0.29656097 -0.083241545 0.002896844
0.3772605 -0.07285143 0.28304338 -0.089337215 -0.24925181 -0.2069108 -0.025560763 -0.18865146
0.03218046 0.14931224 -0.40747663 -0.20777968 -0.19926408 -0.03509106 0.011875617 -0.09086062
0.048799705 0.13683441 0.3669093 -0.25843543 0.3395312 -0.053046968 0.07808718 0.11108432
00000000: ad79 76be f2da c8bd 59ed 9bbd 710b 30be
00000010: 3edd 13be 79ad 023e 3a68 673e 1103 8a3e
00000020: 156a 7a3e 8a2a b93d ed3e 733e bbc0 10be
00000030: 8f41 523e ecbd dbbc 3543 a53b c628 343e
00000040: 921d a83d 72e7 523e 571e a9be 0674 513e
00000050: 7e87 023e 20b3 693e 6fe2 11be 8c84 893e
00000060: 33dc 603e ce83 92be 2a09 73bd 4ed2 473e
00000070: 74d7 b33d 0f8a 34bd 22ee 573e 5da4 54be
00000080: b5a9 89be 9592 af3e f0d6 d63d acc6 f5bd
00000090: b7db 803e d7d6 97be 8b7a aabd fad8 3d3b
000000a0: 4a28 c13e 2133 95bd 10eb 903e 6ef6 b6bd
000000b0: de3b 7fbe 6de0 53be ce64 d1bc d92d 41be
000000c0: a8cf 033d 4fe5 183e c7a0 d0be 32c4 54be
000000d0: e20b 4cbe a5bb 0fbd f391 423c 2215 babd
000000e0: 33e2 473d 521e 0c3e 89db bb3e a651 84be
000000f0: 09d7 ad3e c747 59bd 2cec 9f3d 2d80 e33d

mid.5.linear.weight f4 [64, 64]
-0.058575068 0.45012575 0.5110124 -0.040294807 -0.062268823 -0.20628288 -0.18823738 -0.2110784
-0.10512366 -0.05439573 -0.22600354 0.02226254 -0.22358353 0.3831164 -0.026630484 0.005455185
-0.386419 -0.4333023 -0.30087474 -0.22583431 0.1179479 -0.09864705 -0.15127037 0.09189185
-0.5508224 -0.020866236 -0.23784053 -0.3415675 -0.42042056 0.06681211 0.06223825 -0.10325179
0.15381315 0.051607087 -0.06137006 0.12429847 -0.30068782 0.11659698 0.08488874 0.025231525
-0.06078493 0.043438654 0.3414 0.21245375 -0.023988318 -0.24559118 -0.07864587 0.2995492
0.18977162 0.20711969 -0.03586524 -0.25892386 0.4662363 -0.23636128 -0.38004816 -0.3414983
-0.2690203 -0.24148653 -0.20288529 -0.32562166 -0.18962465 -0.0064407554 -0.17852446 -0.042224392
-0.3265173 -0.13564858 0.1965514 -0.12095596 -0.04938075 0.270029 0.05198321 0.06574359
-0.092652306 0.104676984 -0.030224167 -0.05614779 0.30441922 -0.30411404 0.020615598 0.078331985
-0.15090661 -0.24189484 -0.30771652 0.30245855 0.006183244 -0.2801733 0.068631865 -0.007713953
0.17790307 0.11658107 -0.28900552 0.04724114 -0.089499965 -0.04031137 0.2472959 0.018547447
-0.38148317 0.28977522 0.20022172 -0.0034656804 0.19319116 -0.39798763 0.32750434 -0.42548886
-0.039875723 0.10251626 0.34385756 0.22295196 0.19788288 0.123961546 -0.22931829 -0.28534052
-0.29653722 0.24499883 -0.13440385 -0.148031 -0.25879982 0.4236327 0.036973413 0.2457163
0.12716691 0.19160174 -0.3929464 0.10267054 0.38964224 0.09181058 0.18177912 0.1040126
-0.21833515 0.32497996 0.3957953 0.01725468 0.09467158 -0.4123402 -0.034470223 0.07182494
-0.22832915 0.30265784 0.23689309 -0.33343917 1.0825238 0.6137391 -0.11741199 -0.11666905
0.41824645 0.069637336 -0.028634144 -0.0900125 -0.13902508 -0.19047941 -0.087299205 -0.5059966
0.20888083 -0.039865065 -0.056839697 0.19824848 0.35133925 -0.11951535 0.054253444 -1.1840013
-0.0065292343 -0.52365595 -0.6166415 -0.13562785 -0.45075905 -0.13583814 -0.18793921 -0.37603354
-0.56178683 0.49628407 0.23744445 0.41379094 -0.14604466 -0.27186382 -0.31017625 0.15971772
-0.09086718 -0.036550537 0.5013622 0.110923946 -0.09746834 0.26807532 -0.5218831 -0.17233789
-0.11812059 0.053852297 0.24139677 -0.14401188 -0.3916041 0.28616503 -0.022612294 0.091403596
0.046779513 -0.010612587 -0.18411744 0.51805365 0.50333375 0.56512684 -0.19333991 0.099329814
-0.039816312 -0.096498616 0.5457337 0.021795798 -0.19771239 0.44666544 0.08655704 0.26732704
0.09374162 0.16961077 0.058996633 0.27516335 -0.007836671 -0.08674082 -0.430082 -0.3576917
0.0041524707 -0.49559346 -0.047709133 0.1175436 0.21191381 0.020959688 -0.427121 -0.20439623
-0.19102004 -0.110887915 0.36275408 -0.18800147 0.10813562 -0.6343493 -0.016729817 0.061269917
-0.25273514 0.11992667 0.0656365 0.35603216 -0.41895258 0.013507161 -0.59701574 0.71387774
0.25604478 -0.17662397 -0.04683552 0.31230637 -0.104208075 -0.0033138772 -0.40496174 -0.09973446
-0.39496168 -0.10691131 0.14043462 -0.20839892 -0.13841201 -0.5187752 0.03169288 0.12654854
00000000: 69ec 6fbd e276 e63e b5d1 023f 2b0c 25bd
00000010: 980d 7fbd d23b 53be 4dc1 40be f024 58be
00000020: 134b d7bd 0fce 5ebd 796d 67be ee5f b63c
00000030: 15f3 64be d527 c43e 2c28 dabc 69c1 b23b
00000040: b6d8 c5be cdd9 ddbe 410c 9abe 1c41 67be
00000050: ab8e f13d 7707 cabd 9fe6 1abe cb31 bc3d
00000060: b202 0dbf abef aabc 788c 73be efe1 aebe
00000070: 5d41 d7be cad4 883d 89ed 7e3d ad75 d3bd
00000080: 3281 1d3e f461 533d 2c5f 7bbd 3290 fe3d
00000090: c1f3 99be 66ca ee3d 26da ad3d 58b2 ce3c
000000a0: 9ef9 78bd bbec 313d fbcb ae3e 7a8d 593e
000000b0: 2683 c4bc 417c 7bbe 1611 a1bd 835e 993e
000000c0: 7e53 423e 2f17 543e 6ee7 12bd ab91 84be
000000d0: 86b6 ee3e b108 72be ac95 c2be ddd8 aebe
000000e0: 07bd 89be 3f48 77be 29c1 4fbe e2b7 a6be
000000f0: f72c 42be f90c d3bb 1ecf 36be 7cf3 2cbd
00000100: 472d a7be 76e7 0abe c544 493e c2b7 f7bd
00000110: 7843 4abd 3e41 8a3e 59ec 543d 93a4 863d
00000120: 7ec0 bdbd e360 d63d ac98 f7bc 3afb 65bd
00000130: d6dc 9b3e d6b4 9bbe 0be2 a83c 856c a03d
00000140: 4387 1abe 48b3 77be 058d 9dbe d9db 9a3e
00000150: cf9c ca3b e072 8fbe dd8e 8c3d 54c5 fcbb
00000160: 392c 363e 0ec2 ee3d 88f8 93be ed7f 413d
00000170: c24b b7bd 891d 25bd 233b 7d3e d1f0 973c
00000180: c351 c3be 6b5d 943e ec06 4d3e 7820 63bb
00000190: e7d3 453e 09c5 cbbe a6ae a73e add9 d9be
000001a0: ba54 23bd 0cf4 d13d 190e b03e 854d 643e
000001b0: cfa1 4a3e 8ddf fd3d 6ad2 6abe 2718 92be
000001c0: bad3 97be f9e0 7a3e 2aa1 09be 7095 17be
000001d0: 6981 84be 63e6 d83e 6f71 173d 0e9d 7b3e
000001e0: 0b38 023e 3f33 443e 4530 c9be ef44 d23d
000001f0: 307f c73e 2f07 bc3d 4e24 3a3e 8f04 d53d
00000200: 4093 5fbe c663 a63e aea5 ca3e b059 8d3c
00000210: 2ce3 c13d 411e d3be a630 0dbd f418 933d
00000220: 1ecf 69be f8f5 9a3e 1a94 723e 8ab8 aabe
00000230: 2490 8a3f 011e 1d3f b375 f0bd 2ff0 eebd
00000240: 6624 d63e 059e 8e3d 2792 eabc 7958 b8bd
00000250: 975c 0ebe 090d 43be edc9 b2bd fe88 01bf
00000260: dbe4 553e 8d49 23bd bed0 68bd a601 4b3e
00000270: bde2 b33e 77c4 f4bd dc38 5e3d 5b8d 97bf
00000280: 30f3 d5bb 510e 06bf 38dc 1dbf 07e2 0abe
00000290: e4c9 e6be 2719 0bbe 2373 40be 7887 c0be
000002a0: 43d1 0fbf f218 fe3e a324 733e 68dc d33e
000002b0: bb8c 15be bc31 8bbe 6ccf 9ebe 0b8d 233e
000002c0: 9218 babd 04b6 15bd 4659 003f 182c e33d
000002d0: 7b9d c7bd 2b41 893e 219a 05bf 5879 30be
000002e0: 35e9 f1bd 3a94 5c3d b730 773e da77 13be
000002f0: 5580 c8be 3984 923e 6b3d b9bc cf31 bb3d
00000300: e09b 3f3d 6be0 2dbc 4889 3cbe 2a9f 043f
00000310: 7bda 003f 27ac 103f e6fa 45be 6e6d cb3d
00000320: 6e16 23bd 11a1 c5bd 34b5 0b3f 1a8d b23c
00000330: 1e75 4abe 55b1 e43e d144 b13d 17df 883e
00000340: 9bfb bf3d 72ae 2d3e 74a6 713d 36e2 8c3e
00000350: 6165 00bc 2ca5 b1bd b533 dcbe 5e23 b7be
00000360: 7311 883b 6dbe fdbe a76a 43bd b3ba f03d
00000370: efff 583e a7b3 ab3c 9baf dabe 3f4d 51be
00000380: c29a 43be 3419 e3bd e7ba b93e 7583 40be
00000390: 3576 dd3d b764 22bf f80c 89bc 2af6 7a3d
000003a0: 8066 81be 1d9c f53d 6e6c 863d d949 b63e
000003b0: f480 d6be 244d 5d3c 06d6 18bf b1c0 363f
000003c0: 4d18 833e eadc 34be 9ad6 3fbd 9fe6 9f3e
000003d0: 0b6b d5bd a22d 59bb 2557 cfbe 9541 ccbd
000003e0: 6b38 cabe 51f4 dabd 18ce 0f3e 8766 55be
000003f0: e1bb 0dbe 74ce 04bf 65d0 013d f195 013e

mid.5.linear.bias f4 [64]
0.0827099 -0.04155566 0.03374083 -0.29306927 0.0060925907 -0.3410136 -0.2622993 0.11162984
-0.013530646 0.27159974 0.18580224 0.20442662 0.0004969844 -0.028876353 -0.092868194 0.21131621
0.052465092 -0.04945708 -0.14861035 -0.39744365 -0.28190958 -0.054671068 0.28574032 0.22612761
0.31128392 -0.30854648 0.16473293 0.06432664 -0.2340366 0.29310188 0.199457 0.026284534
-0.046261627 0.24900766 0.13754563 -0.32584167 0.16961169 -0.32666048 0.20422493 0.10807889
-0.06310826 -0.32165587 0.34872273 0.19650322 -0.11027524 -0.34470695 -0.068182476 0.10784575
-0.11784369 -0.11725733 -0.31829992 -0.17992108 0.29829097 -0.042105492 -0.18564901 -0.15134336
-0.25312927 -0.25645217 0.025616525 -0.21218759 0.0017755283 0.1845135 -0.045757648 0.020237789
00000000: cf63 a93d 4536 2abd d333 0a3d 2d0d 96be
00000010: 5ba4 c73b 5699 aebe 184c 86be 309e e43d
00000020: a5af 5dbc 1f0f 8b3e f142 3e3e 3655 513e
00000030: 0f48 023a 1a8e ecbc ae31 bebd 4763 583e
00000040: a3e5 563d 8293 4abd 502d 18be bc7d cbbe
00000050: 7456 90be c5ee 5fbd 8e4c 923e ff8d 673e
00000060: 9b60 9f3e cef9 9dbe c0af 283e afbd 833d
00000070: 4aa7 6fbe 7311 963e 753e 4c3e aa52 d73c
00000080: d57c 3dbd ddfb 7e3e c3d8 0c3e b8d4 a6be
00000090: b0ae 2d3e 0b40 a7be 5720 513e 7758 dd3d
000000a0: e73e 81bd 14b0 a4be c98b b23e 2438 493e
000000b0: fcd7 e1bd 6e7d b0be 41a3 8bbd 3cde dc3d
000000c0: 0858 f1bd 9c24 f0bd 35f8 a2be 3b3d 38be
000000d0: 98b9 983e cf76 2cbd c61a 3ebe c1f9 1abe
000000e0: 299a 81be b34d 83be bfd9 d13c b447 59be
000000f0: d8b8 e83a 1bf1 3c3e 5f6c 3bbd b8c9 a53c

model.0.linear.weight f4 [64, 2]
0.047890175 -0.048141435 -0.020290174 0.050167028 0.06685395 0.063728005 0.046416264 0.038942754
-0.031733945 0.05280791 -0.063468546 -0.073734544 0.05916374 -0.04454592 0.035254195 0.06859325
0.065288045 0.0026702196 0.02596866 0.030024964 -0.015898298 0.024966998 0.021986589 0.06966322
0.0465915 -0.08363132 -0.097334966 0.022433374 -0.03525726 0.06899431 0.021911724 0.063950084
0.057141125 0.042829167 0.037272096 0.09368053 0.06743941 -0.09117721 0.02905456 0.1319683
-0.054992862 0.05999968 -0.044143863 -0.035272647 -0.053503234 -0.015304214 -0.053485304 0.010152661
0.013046267 -0.08500934 0.058337346 0.0686049 -0.015537962 0.07583886 0.0666414 -0.08094622
0.02310435 0.055160247 0.05962992 -0.013225556 0.029604811 -0.026306106 0.071995884 0.0038707773
-0.049868334 0.01472152 -0.042246014 -0.023216873 0.07349365 0.029147577 0.11141596 -0.011087931
-0.04375455 0.05200984 0.037162397 -0.016829755 0.030425025 -0.03553711 -0.07407385 0.07644142
0.06576333 0.033778943 -0.030629197 0.00457437 -0.06402706 -0.0062527107 -0.021031352 -0.026980434
0.03170676 -0.0885455 0.016923966 0.06387225 0.06508456 0.041787915 0.055716407 0.07604044
-0.06298877 0.043834683 0.06977744 0.016850196 -0.0025098778 -0.083422564 0.010264223 0.0318034
-0.049471706 -0.07969503 0.08324152 0.07515158 0.04658592 -0.0046109273 0.0021027606 -0.043227993
0.085007995 -0.094963655 0.0008874802 -0.029467395 -0.034056865 0.042660907 -0.07356283 -0.06077508
0.010154451 -0.049017765 -0.06106079 0.070261225 -0.015944742 0.0039489465 -0.033985917 0.05928628
00000000: 7d28 443d f42f 45bd 9437 a6bc f17b 4d3d
00000010: b9ea 883d d483 823d fb1e 3e3d 7082 1f3d
00000020: 74fb 01bd 1b4d 583d ccfb 81bd 2302 97bd
00000030: ae55 723d c875 36bd b466 103d 9e7a 8c3d
00000040: bdb5 853d dafe 2e3b 3abc d43c eaf6 f53c
00000050: 263d 82bc 9787 cc3c 381d b43c 97ab 8e3d
00000060: bbd6 3e3d e646 abbd 8e57 c7bd 32c6 b73c
00000070: eb69 10bd e44c 8d3d 3780 b33c 43f8 823d
00000080: d00c 6a3d a36d 2f3d a0aa 183d 94db bf3d
00000090: ac1d 8a3d 1ebb babd d403 ee3c b322 073e
000000a0: 3240 61bd 39c2 753d 32d0 34bd 0d7a 10bd
000000b0: 3526 5bbd 87be 7abc 6813 5bbd 5957 263c
000000c0: 03c0 553c 6019 aebd 24f3 6e3d ba80 8c3d
000000d0: f092 7ebc 6751 9b3d 497b 883d 22c7 a5bd
000000e0: 5545 bd3c b6ef 613d 813e 743d 01b0 58bc
000000f0: ca85 f23c e77f d7bc 9472 933d deac 7d3b
00000100: bd42 4cbd 8832 713c 280a 2dbd 5031 bebc
00000110: d783 963d e6c6 ee3c 0d2e e43d 27aa 35bc
00000120: f937 33bd 4508 553d 9937 183d 8ede 89bc
00000130: e73d f93c 5c8f 11bd 08b4 97bd 528d 9c3d
00000140: edae 863d ca5b 0a3d 15ea fabc 99e4 953b
00000150: 9f20 83bd 8ae3 ccbb f149 acbc 1206 ddbc
00000160: f3de 013d 5857 b5bd 21a4 8a3c 74cf 823d
00000170: 0e4b 853d ce29 2b3d e336 643d 17bb 9b3d
00000180: 4200 81bd ff8b 333d 79e7 8e3d 6c09 8a3c
00000190: c37c 24bb 73d9 aabd 462b 283c 4844 023d
000001a0: d8a2 4abd 2637 a3bd 887a aa3d 12e9 993d
000001b0: e1d0 3e3d 4317 97bb 78ce 093b d60f 31bd
000001c0: ac18 ae3d 4e7c c2bd caa5 683a 9b65 f1bc
000001d0: 367f 0bbd 34bd 2e3d 1ca8 96bd 4aef 78bd
000001e0: db5e 263c dac6 48bd e11a 7abd 1ee5 8f3d
000001f0: 8c9e 82bc 2a66 813b d134 0bbd 2cd6 723d
